// Regression: native Conv1D per-channel bias under NSS-only compilation
// (--torq-disable-host --torq-disable-css). Extracted from the real NNNR3 model
// (NNNR3_0079_0.0960_torq_bf16, layer Conv_2): single-input-channel Conv1D,
// kernel width 3, stride 2, asymmetric pad [0,1], per-channel bias, bf16.
//
// The native conv1d path lowers to
//   conv1d(mul) -> reduce_sum(f32) -> collapse -> addf(bias) -> truncf(bf16)
// The fp32 bias add has no NSS/CSS lowering, so with Host disabled
// FoldConvBiasIntoReducePattern folds the bias into the reduce (applied in fp32
// by the activation stage), bit-exact with round_bf16(sum_f32 + bias_f32).
#map = affine_map<(d0) -> (d0)>
#map1 = affine_map<(d0, d1, d2) -> (d0, d1, d2)>
module {
  func.func @main(%arg0: tensor<1x1x256xbf16>) -> tensor<1x32x128xbf16> {
      %cst = arith.constant dense<[… > : tensor<32xbf16>
      %cst_0 = arith.constant dense<[[[… > : tensor<32x1x3xbf16>
      %cst_1 = arith.constant 0.000000e+00 : bf16
      %padded = tensor.pad %arg0 low[0, 0, 0] high[0, 0, 1] {
      ^bb0(%arg3: index, %arg4: index, %arg5: index):
        tensor.yield %cst_1 : bf16
      } : tensor<1x1x256xbf16> to tensor<1x1x257xbf16>
      %1 = tensor.empty() : tensor<1x32x128xf32>
      %2 = tensor.empty() : tensor<32xf32>
      %3 = linalg.generic {indexing_maps = [#map, #map], iterator_types = ["parallel"]} ins(%cst : tensor<32xbf16>) outs(%2 : tensor<32xf32>) {
      ^bb0(%in: bf16, %out: f32):
        %9 = arith.extf %in : bf16 to f32
        linalg.yield %9 : f32
      } -> tensor<32xf32>
      %broadcasted = linalg.broadcast ins(%3 : tensor<32xf32>) outs(%1 : tensor<1x32x128xf32>) dimensions = [0, 2] 
      %4 = linalg.conv_1d_ncw_fcw {dilations = dense<1> : vector<1xi64>, strides = dense<2> : vector<1xi64>} ins(%padded, %cst_0 : tensor<1x1x257xbf16>, tensor<32x1x3xbf16>) outs(%broadcasted : tensor<1x32x128xf32>) -> tensor<1x32x128xf32>
      %5 = tensor.empty() : tensor<1x32x128xbf16>
      %6 = linalg.generic {indexing_maps = [#map1, #map1], iterator_types = ["parallel", "parallel", "parallel"]} ins(%4 : tensor<1x32x128xf32>) outs(%5 : tensor<1x32x128xbf16>) {
      ^bb0(%in: f32, %out: bf16):
        %9 = arith.truncf %in : f32 to bf16
        linalg.yield %9 : bf16
      } -> tensor<1x32x128xbf16>
    return %6 : tensor<1x32x128xbf16>
  }
}
