// Regression: native pointwise Conv1D per-channel bias under NSS-only
// compilation (--torq-disable-host --torq-disable-css). Extracted from the real
// NNNR3 model (NNNR3_0079_0.0960_torq_bf16, layer Conv_55): 48->48 channels,
// kernel width 1, stride 1, per-channel bias, bf16. Same conv1d -> reduce_sum ->
// bias add path; verifies the bias is folded into the reduce on NSS.
#map = affine_map<(d0) -> (d0)>
#map1 = affine_map<(d0, d1, d2) -> (d0, d1, d2)>
module {
  func.func @main(%arg0: tensor<1x48x32xbf16>) -> tensor<1x48x32xbf16> {
      %cst = arith.constant dense<[… > : tensor<48xbf16>
      %cst_0 = arith.constant dense<"…"> : tensor<48x48x1xbf16>
      %1 = tensor.empty() : tensor<1x48x32xf32>
      %2 = tensor.empty() : tensor<48xf32>
      %3 = linalg.generic {indexing_maps = [#map, #map], iterator_types = ["parallel"]} ins(%cst : tensor<48xbf16>) outs(%2 : tensor<48xf32>) {
      ^bb0(%in: bf16, %out: f32):
        %9 = arith.extf %in : bf16 to f32
        linalg.yield %9 : f32
      } -> tensor<48xf32>
      %broadcasted = linalg.broadcast ins(%3 : tensor<48xf32>) outs(%1 : tensor<1x48x32xf32>) dimensions = [0, 2] 
      %4 = linalg.conv_1d_ncw_fcw {dilations = dense<1> : vector<1xi64>, strides = dense<1> : vector<1xi64>} ins(%arg0, %cst_0 : tensor<1x48x32xbf16>, tensor<48x48x1xbf16>) outs(%broadcasted : tensor<1x48x32xf32>) -> tensor<1x48x32xf32>
      %5 = tensor.empty() : tensor<1x48x32xbf16>
      %6 = linalg.generic {indexing_maps = [#map1, #map1], iterator_types = ["parallel", "parallel", "parallel"]} ins(%4 : tensor<1x48x32xf32>) outs(%5 : tensor<1x48x32xbf16>) {
      ^bb0(%in: f32, %out: bf16):
        %9 = arith.truncf %in : f32 to bf16
        linalg.yield %9 : bf16
      } -> tensor<1x48x32xbf16>
    return %6 : tensor<1x48x32xbf16>
  }
}
