module {
  func.func @main(%arg0: tensor<1x21x21x576xi8> {ml_program.identifier = "serving_default_input_0:0"}) -> tensor<1x10x10x576xi8> {
    %0 = "tosa.const"() <{values = dense<0> : tensor<576xi32>}> : () -> tensor<576xi32>
    %1 = "tosa.const"() <{values = dense<"…"> : tensor<3x3x576x1xi8>}> : () -> tensor<3x3x576x1xi8>
    %cst = arith.constant dense<-128> : tensor<1xi8>
    %cst_0 = arith.constant dense<0> : tensor<1xi8>
    %2 = tosa.depthwise_conv2d %arg0, %1, %0, %cst, %cst_0 {acc_type = i32, dilation = array<i64: 1, 1>, pad = array<i64: 0, 0, 0, 0>, stride = array<i64: 2, 2>} : (tensor<1x21x21x576xi8>, tensor<3x3x576x1xi8>, tensor<576xi32>, tensor<1xi8>, tensor<1xi8>) -> tensor<1x10x10x576xi32>
    %cst_1 = arith.constant dense<"…"> : tensor<576xi32>
    %cst_2 = arith.constant dense<41> : tensor<576xi8>
    %cst_3 = arith.constant dense<0> : tensor<1xi32>
    %cst_4 = arith.constant dense<-1> : tensor<1xi8>
    %3 = tosa.rescale %2, %cst_1, %cst_2, %cst_3, %cst_4 {input_unsigned = false, output_unsigned = false, per_channel = true, rounding_mode = DOUBLE_ROUND, scale32 = true} : (tensor<1x10x10x576xi32>, tensor<576xi32>, tensor<576xi8>, tensor<1xi32>, tensor<1xi8>) -> tensor<1x10x10x576xi8>
    return %3 : tensor<1x10x10x576xi8>
  }
}

