module attributes {tf_saved_model.semantics} {
  func.func @main(%arg0: tensor<1x56x56x11xi8> {ml_program.identifier = "serving_default_input_0:0", tf_saved_model.index_path = ["input_0"]}) -> (tensor<1x56x56x11xi8> {ml_program.identifier = "StatefulPartitionedCall_1:0", tf_saved_model.index_path = ["output_0"]}) attributes {tf_saved_model.exported_names = ["serving_default"]} {
    %0 = "tosa.const"() <{values = dense<0> : tensor<11xi32>}> : () -> tensor<11xi32>
    %cst = arith.constant dense<-128> : tensor<1xi8>
    %cst_0 = arith.constant dense<0> : tensor<1xi8>
    %1 = "tosa.const"() <{values = dense<"…"> : tensor<5x5x11x1xi8>}> : () -> tensor<5x5x11x1xi8>
    %2 = tosa.depthwise_conv2d %arg0, %1, %0, %cst, %cst_0 {acc_type = i32, dilation = array<i64: 1, 1>, pad = array<i64: 2, 2, 2, 2>, stride = array<i64: 1, 1>} : (tensor<1x56x56x11xi8>, tensor<5x5x11x1xi8>, tensor<11xi32>, tensor<1xi8>, tensor<1xi8>) -> tensor<1x56x56x11xi32>
    %cst_1 = arith.constant dense<[1494728868, 1389415548, 1444318144, 1493774144, 1527403457, 1473327430, 1415957845, 1467841227, 1530001498, 1507764475, 1513213326]> : tensor<11xi32>
    %cst_2 = arith.constant dense<41> : tensor<11xi8>
    %cst_3 = arith.constant dense<0> : tensor<1xi32>
    %cst_4 = arith.constant dense<28> : tensor<1xi8>
    %3 = tosa.rescale %2, %cst_1, %cst_2, %cst_3, %cst_4 {input_unsigned = false, output_unsigned = false, per_channel = true, rounding_mode = DOUBLE_ROUND, scale32 = true} : (tensor<1x56x56x11xi32>, tensor<11xi32>, tensor<11xi8>, tensor<1xi32>, tensor<1xi8>) -> tensor<1x56x56x11xi8>
    return %3 : tensor<1x56x56x11xi8>
  }
}

