module attributes {tf_saved_model.semantics, tfl.description = "MLIR Converted.", tfl.metadata = {CONVERSION_METADATA = "\0C\00\00\00\08\00\0E\00\08\00\04\00\08\00\00\00\10\00\00\00(\00\00\00\00\00\06\00\08\00\04\00\06\00\00\00\04\00\00\00\01\00\00\00\EB\03\00\00\0C\00\18\00\14\00\10\00\0C\00\04\00\0C\00\00\00\02L\82\FA6F\D0q\02\00\00\00\02\00\00\00\04\00\00\00\06\00\00\002.18.0\00\00", min_runtime_version = "1.14.0\00\00\00\00\00\00\00\00\00\00"}, tfl.schema_version = 3 : i32} {
  func.func @main(%arg0: tensor<1x1x1x1000xi8> {tf_saved_model.index_path = ["input_0"]}) -> (tensor<1x1000xi8> {tf_saved_model.index_path = ["output_0"]}) attributes {tf.entry_function = {inputs = "serving_default_input_0:0", outputs = "StatefulPartitionedCall_1:0"}, tf_saved_model.exported_names = ["serving_default"]} {
    %0 = tosa.const_shape  {values = dense<[3, 3, 960, 1]> : tensor<4xindex>} : () -> !tosa.shape<4>
    %1 = tosa.const_shape  {values = dense<[3, 3, 576, 1]> : tensor<4xindex>} : () -> !tosa.shape<4>
    %2 = tosa.const_shape  {values = dense<[3, 3, 384, 1]> : tensor<4xindex>} : () -> !tosa.shape<4>
    %3 = tosa.const_shape  {values = dense<[3, 3, 192, 1]> : tensor<4xindex>} : () -> !tosa.shape<4>
    %4 = tosa.const_shape  {values = dense<[3, 3, 144, 1]> : tensor<4xindex>} : () -> !tosa.shape<4>
    %5 = tosa.const_shape  {values = dense<[3, 3, 96, 1]> : tensor<4xindex>} : () -> !tosa.shape<4>
    %6 = tosa.const_shape  {values = dense<[3, 3, 32, 1]> : tensor<4xindex>} : () -> !tosa.shape<4>
    %7 = "tosa.const"() <{values = dense<35> : tensor<1x1xi32>}> : () -> tensor<1x1xi32>
    %8 = "tosa.const"() <{values = dense<31> : tensor<1xi8>}> : () -> tensor<1xi8>
    %9 = "tosa.const"() <{values = dense<-1010580540> : tensor<1x1xi32>}> : () -> tensor<1x1xi32>
    %10 = "tosa.const"() <{values = dense<1515870810> : tensor<1x1xi32>}> : () -> tensor<1x1xi32>
    %11 = "tosa.const"() <{values = dense<536870912> : tensor<1x1xi32>}> : () -> tensor<1x1xi32>
    %12 = "tosa.const"() <{values = dense<4> : tensor<1x1xi32>}> : () -> tensor<1x1xi32>
    %13 = "tosa.const"() <{values = dense<12> : tensor<1x1xi32>}> : () -> tensor<1x1xi32>
    %14 = "tosa.const"() <{values = dense<7> : tensor<1x1xi32>}> : () -> tensor<1x1xi32>
    %15 = "tosa.const"() <{values = dense<1> : tensor<1x1xi32>}> : () -> tensor<1x1xi32>
    %16 = "tosa.const"() <{values = dense<9> : tensor<1x1xi32>}> : () -> tensor<1x1xi32>
    %17 = "tosa.const"() <{values = dense<17> : tensor<1x1xi32>}> : () -> tensor<1x1xi32>
    %18 = "tosa.const"() <{values = dense<0> : tensor<1xi16>}> : () -> tensor<1xi16>
    %19 = "tosa.const"() <{values = dense<23> : tensor<1xi8>}> : () -> tensor<1xi8>
    %20 = "tosa.const"() <{values = dense<"…"> : tensor<513xi16>}> : () -> tensor<513xi16>
    %21 = "tosa.const"() <{values = dense<"…"> : tensor<513xi16>}> : () -> tensor<513xi16>
    %22 = "tosa.const"() <{values = dense<"…"> : tensor<513xi16>}> : () -> tensor<513xi16>
    %23 = "tosa.const"() <{values = dense<"…"> : tensor<513xi16>}> : () -> tensor<513xi16>
    %24 = tosa.const_shape  {values = dense<[1, 1000]> : tensor<2xindex>} : () -> !tosa.shape<2>
    %27 = "tosa.const"() <{values = dense<-48> : tensor<1xi8>}> : () -> tensor<1xi8>
    %33 = "tosa.const"() <{values = dense<30> : tensor<1xi8>}> : () -> tensor<1xi8>
    %240 = "tosa.const"() <{values = dense<1073741824> : tensor<1xi32>}> : () -> tensor<1xi32>
    %277 = "tosa.const"() <{values = dense<0> : tensor<1xi32>}> : () -> tensor<1xi32>
    %280 = "tosa.const"() <{values = dense<-128> : tensor<1xi8>}> : () -> tensor<1xi8>
    %281 = "tosa.const"() <{values = dense<0> : tensor<1xi8>}> : () -> tensor<1xi8>

    %495 = tosa.reshape %arg0, %24 : (tensor<1x1x1x1000xi8>, !tosa.shape<2>) -> tensor<1x1000xi8>
    %496 = tosa.rescale %495, %240, %33, %27, %277 {input_unsigned = false, output_unsigned = false, per_channel = false, rounding_mode = SINGLE_ROUND, scale32 = true} : (tensor<1x1000xi8>, tensor<1xi32>, tensor<1xi8>, tensor<1xi8>, tensor<1xi32>) -> tensor<1x1000xi32>
    %497 = tosa.reduce_max %496 {axis = 1 : i32} : (tensor<1x1000xi32>) -> tensor<1x1xi32>
    %498 = tosa.sub %496, %497 : (tensor<1x1000xi32>, tensor<1x1xi32>) -> tensor<1x1000xi32>
    %499 = tosa.rescale %498, %240, %19, %277, %18 {input_unsigned = false, output_unsigned = false, per_channel = false, rounding_mode = SINGLE_ROUND, scale32 = true} : (tensor<1x1000xi32>, tensor<1xi32>, tensor<1xi8>, tensor<1xi32>, tensor<1xi16>) -> tensor<1x1000xi16>
    %500 = tosa.table %499, %23 : (tensor<1x1000xi16>, tensor<513xi16>) -> tensor<1x1000xi32>
    %501 = tosa.table %499, %22 : (tensor<1x1000xi16>, tensor<513xi16>) -> tensor<1x1000xi32>
    %502 = tosa.table %499, %21 : (tensor<1x1000xi16>, tensor<513xi16>) -> tensor<1x1000xi32>
    %503 = tosa.table %499, %20 : (tensor<1x1000xi16>, tensor<513xi16>) -> tensor<1x1000xi32>
    %504 = tosa.logical_left_shift %500, %17 : (tensor<1x1000xi32>, tensor<1x1xi32>) -> tensor<1x1000xi32>
    %505 = tosa.logical_left_shift %501, %16 : (tensor<1x1000xi32>, tensor<1x1xi32>) -> tensor<1x1000xi32>
    %506 = tosa.logical_left_shift %502, %15 : (tensor<1x1000xi32>, tensor<1x1xi32>) -> tensor<1x1000xi32>
    %507 = tosa.arithmetic_right_shift %503, %14 {round = true} : (tensor<1x1000xi32>, tensor<1x1xi32>) -> tensor<1x1000xi32>
    %508 = tosa.add %504, %505 : (tensor<1x1000xi32>, tensor<1x1000xi32>) -> tensor<1x1000xi32>
    %509 = tosa.add %508, %506 : (tensor<1x1000xi32>, tensor<1x1000xi32>) -> tensor<1x1000xi32>
    %510 = tosa.add %509, %507 : (tensor<1x1000xi32>, tensor<1x1000xi32>) -> tensor<1x1000xi32>
    %511 = tosa.arithmetic_right_shift %510, %13 {round = true} : (tensor<1x1000xi32>, tensor<1x1xi32>) -> tensor<1x1000xi32>
    %512 = tosa.reduce_sum %511 {axis = 1 : i32} : (tensor<1x1000xi32>) -> tensor<1x1xi32>
    %513 = tosa.clz %512 : (tensor<1x1xi32>) -> tensor<1x1xi32>
    %514 = tosa.sub %513, %15 : (tensor<1x1xi32>, tensor<1x1xi32>) -> tensor<1x1xi32>
    %515 = tosa.logical_left_shift %512, %514 : (tensor<1x1xi32>, tensor<1x1xi32>) -> tensor<1x1xi32>
    %516 = tosa.mul %515, %9, %8 : (tensor<1x1xi32>, tensor<1x1xi32>, tensor<1xi8>) -> tensor<1x1xi32>
    %517 = tosa.add %516, %10 : (tensor<1x1xi32>, tensor<1x1xi32>) -> tensor<1x1xi32>
    %518 = tosa.mul %517, %515, %8 : (tensor<1x1xi32>, tensor<1x1xi32>, tensor<1xi8>) -> tensor<1x1xi32>
    %519 = tosa.sub %11, %518 : (tensor<1x1xi32>, tensor<1x1xi32>) -> tensor<1x1xi32>
    %520 = tosa.mul %517, %519, %8 : (tensor<1x1xi32>, tensor<1x1xi32>, tensor<1xi8>) -> tensor<1x1xi32>
    %521 = tosa.mul %520, %12, %281 : (tensor<1x1xi32>, tensor<1x1xi32>, tensor<1xi8>) -> tensor<1x1xi32>
    %522 = tosa.add %517, %521 : (tensor<1x1xi32>, tensor<1x1xi32>) -> tensor<1x1xi32>
    %523 = tosa.mul %522, %515, %8 : (tensor<1x1xi32>, tensor<1x1xi32>, tensor<1xi8>) -> tensor<1x1xi32>
    %524 = tosa.sub %11, %523 : (tensor<1x1xi32>, tensor<1x1xi32>) -> tensor<1x1xi32>
    %525 = tosa.mul %522, %524, %8 : (tensor<1x1xi32>, tensor<1x1xi32>, tensor<1xi8>) -> tensor<1x1xi32>
    %526 = tosa.mul %525, %12, %281 : (tensor<1x1xi32>, tensor<1x1xi32>, tensor<1xi8>) -> tensor<1x1xi32>
    %527 = tosa.add %522, %526 : (tensor<1x1xi32>, tensor<1x1xi32>) -> tensor<1x1xi32>
    %528 = tosa.mul %527, %515, %8 : (tensor<1x1xi32>, tensor<1x1xi32>, tensor<1xi8>) -> tensor<1x1xi32>
    %529 = tosa.sub %11, %528 : (tensor<1x1xi32>, tensor<1x1xi32>) -> tensor<1x1xi32>
    %530 = tosa.mul %527, %529, %8 : (tensor<1x1xi32>, tensor<1x1xi32>, tensor<1xi8>) -> tensor<1x1xi32>
    %531 = tosa.mul %530, %12, %281 : (tensor<1x1xi32>, tensor<1x1xi32>, tensor<1xi8>) -> tensor<1x1xi32>
    %532 = tosa.add %527, %531 : (tensor<1x1xi32>, tensor<1x1xi32>) -> tensor<1x1xi32>
    %533 = tosa.mul %510, %532, %33 : (tensor<1x1000xi32>, tensor<1x1xi32>, tensor<1xi8>) -> tensor<1x1000xi32>
    %534 = tosa.sub %7, %513 : (tensor<1x1xi32>, tensor<1x1xi32>) -> tensor<1x1xi32>
    %535 = tosa.arithmetic_right_shift %533, %534 {round = true} : (tensor<1x1000xi32>, tensor<1x1xi32>) -> tensor<1x1000xi32>
    %536 = tosa.rescale %535, %240, %33, %277, %280 {input_unsigned = false, output_unsigned = false, per_channel = false, rounding_mode = SINGLE_ROUND, scale32 = true} : (tensor<1x1000xi32>, tensor<1xi32>, tensor<1xi8>, tensor<1xi32>, tensor<1xi8>) -> tensor<1x1000xi8>
    return %536 : tensor<1x1000xi8>
  }
}
